Ace/ACE_Trained_NN/idle_swing_model.tflite (tflite, 3688 bytes, 2 tensors)

tfl.pseudo_qconst1 i1 [2, 32] scale=0.006665449 zero_point=0
000000 0f f0 da 10 3e 7f 41 c9 00 da 40 be 0e d9 17 b1
       0.09998174 -0.106647186 -0.25328708 0.106647186 0.41325784 0.846512 0.43325418 -0.3665997 0.0 -0.25328708 0.42658874 -0.43991965 0.09331629 -0.25995252 0.15330534 -0.5265705
000010 e6 1a 41 49 28 f1 21 ef 5c 4f ee 5e 31 24 ce 50
       -0.17330168 0.17330168 0.43325418 0.48657778 0.26661795 -0.09998174 0.21995983 -0.11331263 0.61322135 0.5265705 -0.119978085 0.6265522 0.32660702 0.23995617 -0.33327246 0.5332359
000020 39 00 35 25 d6 fc ec e1 b3 35 dc ec 39 00 f6 f3
       0.3799306 0.0 0.3532688 0.24662162 -0.27994886 -0.026661796 -0.13330898 -0.20662892 -0.51323956 0.3532688 -0.23995617 -0.13330898 0.3799306 0.0 -0.06665449 -0.08665084
000030 26 45 b5 dd 39 2a cc 2f bf ec 2a d1 d2 d6 0b f1
       0.25328708 0.459916 -0.4999087 -0.23329072 0.3799306 0.27994886 -0.34660336 0.3132761 -0.43325418 -0.13330898 0.27994886 -0.3132761 -0.30661067 -0.27994886 0.07331994 -0.09998174

tfl.pseudo_qconst3 i1 [32, 35] scale=0.006476628 zero_point=0
000000 bc 1c b7 d6 27 ea 1f ba bf 3f e8 0a f2 ea ee 53
       -0.4404107 0.18134558 -0.47279385 -0.27201837 0.2525885 -0.14248581 0.20077547 -0.45336396 -0.42098084 0.40802756 -0.15543908 0.06476628 -0.09067279 -0.14248581 -0.11657931 0.5375601
000010 ec fd 1b b9 f5 37 dd f9 fd ee e4 ee 0c 27 c5 c6
       -0.12953256 -0.019429885 0.17486896 -0.4598406 -0.071242906 0.35621455 -0.22668198 -0.045336396 -0.019429885 -0.11657931 -0.18134558 -0.11657931 0.07771954 0.2525885 -0.38212106 -0.37564445
000020 ff f6 ce 59 5c 62 fc 5b 57 42 6b 5f b8 1b 13 56
       -0.006476628 -0.06476628 -0.3238314 0.5764199 0.5958498 0.63470954 -0.025906513 0.5893732 0.56346667 0.42745745 0.6929992 0.6152797 -0.46631724 0.17486896 0.123055935 0.55699
000030 5a 54 b4 62 43 ea 20 0e 15 5f 69 d3 25 4a 2b 6b
       0.58289653 0.54403675 -0.49222374 0.63470954 0.4339341 -0.14248581 0.2072521 0.09067279 0.13600919 0.6152797 0.68004596 -0.29144827 0.23963524 0.4792705 0.278495 0.6929992
000040 cc 1d 1f d8 54 06 55 6e 45 f4 28 1e 1a 62 31 c3
       -0.33678466 0.18782222 0.20077547 -0.25906512 0.54403675 0.03885977 0.5505134 0.7124291 0.44688734 -0.07771954 0.25906512 0.19429885 0.16839233 0.63470954 0.31735477 -0.3950743
000050 4c d1 47 4d 5f 16 25 3e 08 47 e4 fd 6d 29 fc 22
       0.49222374 -0.30440152 0.4598406 0.49870038 0.6152797 0.14248581 0.23963524 0.40155095 0.051813025 0.4598406 -0.18134558 -0.019429885 0.70595247 0.26554176 -0.025906513 0.22020535
000060 3c 29 67 9c 00 09 b6 25 0a 22 23 4d 31 22 1c 3a
       0.3885977 0.26554176 0.6670927 -0.6476628 0.0 0.058289655 -0.4792705 0.23963524 0.06476628 0.22020535 0.22668198 0.49870038 0.31735477 0.22020535 0.18134558 0.37564445
000070 3b 40 a6 ec 07 0b f7 ff 3d 33 40 0d 59 3b 4f 21
       0.38212106 0.4145042 -0.58289653 -0.12953256 0.045336396 0.071242906 -0.058289655 -0.006476628 0.3950743 0.33030802 0.4145042 0.084196165 0.5764199 0.38212106 0.5116536 0.21372873
000080 15 43 05 23 36 2d b4 07 19 d3 fe 02 1f 15 11 13
       0.13600919 0.4339341 0.03238314 0.22668198 0.3497379 0.29144827 -0.49222374 0.045336396 0.1619157 -0.29144827 -0.012953256 0.012953256 0.20077547 0.13600919 0.110102676 0.123055935
000090 f0 dd 14 fd ec 03 14 ef e9 d7 1a 1b cd 00 2b 0f
       -0.10362605 -0.22668198 0.12953256 -0.019429885 -0.12953256 0.019429885 0.12953256 -0.110102676 -0.14896245 -0.26554176 0.16839233 0.17486896 -0.33030802 0.0 0.278495 0.097149424
0000a0 f8 09 d4 1c f0 f3 0f e8 0c f4 23 ff fe 04 f7 c9
       -0.051813025 0.058289655 -0.28497162 0.18134558 -0.10362605 -0.084196165 0.097149424 -0.15543908 0.07771954 -0.07771954 0.22668198 -0.006476628 -0.012953256 0.025906513 -0.058289655 -0.35621455
0000b0 02 30 1d 0f 10 1b f5 e0 fa e5 18 e9 da 11 fe 0e
       0.012953256 0.31087816 0.18782222 0.097149424 0.10362605 0.17486896 -0.071242906 -0.2072521 -0.03885977 -0.17486896 0.15543908 -0.14896245 -0.24611187 0.110102676 -0.012953256 0.09067279
0000c0 1d 24 04 04 ff e2 0f e6 d8 20 e4 17 fc f9 1a 01
       0.18782222 0.23315862 0.025906513 0.025906513 -0.006476628 -0.19429885 0.097149424 -0.16839233 -0.25906512 0.2072521 -0.18134558 0.14896245 -0.025906513 -0.045336396 0.16839233 0.006476628
0000d0 dd eb e7 0a fe ec ec f8 0a d5 17 0f 01 eb 0a e7
       -0.22668198 -0.13600919 -0.1619157 0.06476628 -0.012953256 -0.12953256 -0.12953256 -0.051813025 0.06476628 -0.278495 0.14896245 0.097149424 0.006476628 -0.13600919 0.06476628 -0.1619157
0000e0 f8 0a 21 01 f1 18 18 17 24 01 14 bc f5 11 f5 07
       -0.051813025 0.06476628 0.21372873 0.006476628 -0.097149424 0.15543908 0.15543908 0.14896245 0.23315862 0.006476628 0.12953256 -0.4404107 -0.071242906 0.110102676 -0.071242906 0.045336396
0000f0 31 fa ea f9 17 24 5c 36 64 45 0e 3c 4d 13 bd 47
       0.31735477 -0.03885977 -0.14248581 -0.045336396 0.14896245 0.23315862 0.5958498 0.3497379 0.6476628 0.44688734 0.09067279 0.3885977 0.49870038 0.123055935 -0.4339341 0.4598406
