Ace/ACE_Trained_NN/stroke_type_model.tflite (tflite, 3744 bytes, 2 tensors)

tfl.pseudo_qconst1 i1 [3, 32] scale=0.0055082636 zero_point=0
0.22583881 -0.23685533 0.22583881 0.027541317 0.42964455 0.44066107 -0.06609917 0.25338012
0.5398098 0.17075618 0.12669006 0.37456194 -0.40761152 -0.40761152 -0.2699049 -0.6444668
-0.5508264 0.22033054 -0.0605909 -0.11016527 0.19829749 0.46269414 0.23134707 -0.13219833
-0.30846277 0.5728594 -0.24787186 0.1377066 0.627942 0.21482228 -0.313971 0.027541317
-0.20931402 0.19278923 -0.6995495 -0.5893842 -0.5343016 -0.22033054 0.45718586 0.44066107
0.32498756 0.34151235 0.49023545 0.22583881 -0.1377066 0.43515283 0.3635454 -0.22033054
-0.022033054 0.038557846 -0.1817727 0.41862804 0.26439667 0.06609917 0.13219833 -0.20380576
0.13219833 -0.12669006 0.0055082636 -0.61692554 -0.40210325 -0.5508264 0.17626444 -0.033049583
0.14321485 0.0 0.6444668 -0.37456194 -0.29193798 -0.24787186 -0.56184286 -0.46269414
-0.2754132 -0.43515283 -0.4682024 -0.51226854 0.23134707 -0.36905366 0.4682024 0.32498756
0.055082634 -0.1211818 0.1377066 -0.46269414 -0.44616935 -0.027541317 -0.5177768 0.022033054
0.34151235 -0.055082634 -0.41311976 0.20380576 0.1377066 -0.04957437 -0.093640484 0.5563346
00000000: 29d5 2905 4e50 f42e 621f 1744 b6b6 cf8b
00000010: 9c28 f5ec 2454 2ae8 c868 d319 7227 c705
00000020: da23 8195 9fd8 5350 3b3e 5929 e74f 42d8
00000030: fc07 df4c 300c 18db 18e9 0190 b79c 20fa
00000040: 1a00 75bc cbd3 9aac ceb1 aba3 2abd 553b
00000050: 0aea 19ac affb a204 3ef6 b525 19f7 ef65

tfl.pseudo_qconst3 i1 [32, 35] scale=0.005133537 zero_point=0
-0.30287868 -0.082136594 -0.22587563 0.030801222 -0.025667686 0.12320489 -0.08727013 0.13347197
0.14887257 0.1796738 -0.061602443 -0.077003054 -0.23614271 -0.03593476 0.12320489 -0.118071355
0.1796738 0.046201833 0.13347197 0.15400611 0.26694393 0.27207747 0.5646891 0.06673598
-0.17454027 -0.24127625 0.112937815 -0.06673598 -0.015400611 -0.020534148 -0.020534148 0.30287868
0.15400611 -0.29774514 0.061602443 0.1386055 -0.12833843 -0.030801222 0.118071355 0.18994087
-0.041068297 0.1796738 0.051335372 -0.23100917 0.4825525 -0.15913965 0.277211 -0.15400611
0.0 -0.010267074 -0.2874781 -0.15913965 -0.23100917 0.27207747 -0.29261163 0.2618104
-0.5133537 -0.28234455 0.082136594 0.112937815 -0.051335372 -0.4260836 -0.077003054 -0.16427319
0.5082202 0.03593476 0.102670744 -0.19507441 -0.077003054 0.030801222 -0.025667686 -0.118071355
-0.07186952 0.54928845 0.077003054 0.39528236 0.097537205 0.112937815 0.08727013 0.08727013
-0.23100917 -0.092403665 -0.1386055 0.17454027 0.24127625 -0.20020795 -0.34908053 -0.13347197
0.056468908 0.07186952 -0.1796738 0.47741896 0.5646891 0.1386055 -0.092403665 0.15913965
-0.343947 0.19507441 0.48768604 0.051335372 0.25667685 0.16427319 0.12320489 -0.17454027
-0.18480733 -0.36448112 -0.3747482 0.31314576 0.112937815 -0.15913965 -0.005133537 -0.20020795
0.077003054 0.015400611 0.13347197 -0.38501528 -0.36961466 -0.005133537 0.020534148 0.14373904
0.28234455 -0.21560855 0.30287868 -0.48768604 0.12833843 0.061602443 0.08727013 0.23100917
-0.061602443 0.32341284 0.23614271 0.13347197 0.092403665 0.12833843 0.23614271 -0.277211
-0.3336799 -0.13347197 0.082136594 0.118071355 0.03593476 -0.020534148 -0.03593476 -0.44148418
0.082136594 -0.097537205 0.112937815 -0.010267074 0.24127625 -0.097537205 0.15400611 0.23614271
-0.03593476 -0.5082202 -0.24640977 0.22074209 -0.12833843 -0.08727013 -0.36961466 0.010267074
0.16427319 -0.112937815 -0.4260836 -0.005133537 0.46715188 0.32854638 0.112937815 0.21560855
0.35421407 -0.14887257 0.14887257 -0.005133537 -0.03593476 0.17454027 -0.22074209 -0.22587563
0.19507441 -0.08727013 -0.112937815 0.082136594 0.015400611 0.27207747 0.051335372 0.23614271
0.010267074 0.28234455 -0.107804276 0.015400611 -0.2618104 0.28234455 0.046201833 -0.005133537
0.18480733 0.061602443 0.4004159 0.19507441 0.0 0.051335372 -0.056468908 0.39014882
-0.010267074 0.28234455 -0.13347197 0.07186952 -0.15400611 0.1386055 0.051335372 -0.23100917
-0.18480733 -0.12320489 -0.010267074 -0.24640977 0.26694393 0.14887257 -0.14373904 -0.010267074
0.118071355 -0.102670744 -0.20020795 -0.29774514 -0.16427319 -0.33881345 -0.2515433 0.077003054
-0.24640977 0.3182793 -0.020534148 0.19507441 0.3182793 0.030801222 0.1796738 -0.32341284
-0.15913965 0.092403665 0.025667686 0.21047503 0.19507441 -0.1386055 -0.4312171 0.12320489
0.1796738 -0.025667686 -0.26694393 0.092403665 0.14887257 -0.07186952 0.12833843 -0.21047503
-0.025667686 -0.025667686 0.18994087 0.056468908 -0.14373904 -0.112937815 -0.277211 0.26694393
00000000: c5f0 d406 fb18 ef1a 1d23 f4f1 d2f9 18e9
00000010: 2309 1a1e 3435 6e0d ded1 16f3 fdfc fc3b
00000020: 1ec6 0c1b e7fa 1725 f823 0ad3 5ee1 36e2
00000030: 00fe c8e1 d335 c733 9cc9 1016 f6ad f1e0
00000040: 6307 14da f106 fbe9 f26b 0f4d 1316 1111
00000050: d3ee e522 2fd9 bce6 0b0e dd5d 6e1b ee1f
00000060: bd26 5f0a 3220 18de dcb9 b73d 16e1 ffd9
00000070: 0f03 1ab5 b8ff 041c 37d6 3ba1 190c 112d
00000080: f43f 2e1a 1219 2eca bfe6 1017 07fc f9aa
00000090: 10ed 16fe 2fed 1e2e f99d d02b e7ef b802
000000a0: 20ea adff 5b40 162a 45e3 1dff f922 d5d4
000000b0: 26ef ea10 0335 0a2e 0237 eb03 cd37 09ff
000000c0: 240c 4e26 000a f54c fe37 e60e e21b 0ad3
000000d0: dce8 fed0 341d e4fe 17ec d9c6 e0be cf0f
000000e0: d03e fc26 3e06 23c1 e112 0529 26e5 ac18
000000f0: 23fb cc12 1df2 19d7 fbfb 250b e4ea ca34
